…
    "model.compile(loss = 'sparse_categorical_crossentropy', optimizer = 'adam', metrics = ['accuracy'])\n",
    "# Compile the model with binary crossentropy loss and the Adam optimizer."
   ]
  },
  {
   "cell_type": "code",
   "execution_count": 10,
   "id": "e6291119",
   "metadata": {},
   "outputs": [
    {
     "name": "stdout",
     "output_type": "stream",
     "text": [
      "Model: \"sequential\"\n",
      "_________________________________________________________________\n",
      " Layer (type)                Output Shape              Param #   \n",
      "=================================================================\n",
      " conv2d (Conv2D)             (None, 222, 222, 32)      896       \n",
      "                                                                 \n",
      " activation (Activation)     (None, 222, 222, 32)      0         \n",
      "                                                                 \n",
      " max_pooling2d (MaxPooling2  (None, 111, 111, 32)      0         \n",
      " D)                                                              \n",
      "                                                                 \n",
      " conv2d_1 (Conv2D)           (None, 109, 109, 32)      9248      \n",
      "                                                                 \n",
      " activation_1 (Activation)   (None, 109, 109, 32)      0         \n",
      "                                                                 \n",
      " max_pooling2d_1 (MaxPoolin  (None, 54, 54, 32)        0         \n",
      " g2D)                                                            \n",
      "                                                                 \n",
      " conv2d_2 (Conv2D)           (None, 52, 52, 32)        9248      \n",
      "                                                                 \n",
      " activation_2 (Activation)   (None, 52, 52, 32)        0         \n",
      "                                                                 \n",
      " max_pooling2d_2 (MaxPoolin  (None, 26, 26, 32)        0         \n",
      " g2D)                                                            \n",
      "                                                                 \n",
      " flatten (Flatten)           (None, 21632)             0         \n",
      "                                                                 \n",
      " dropout (Dropout)           (None, 21632)             0         \n",
      "                                                                 \n",
      " dense (Dense)               (None, 128)               2769024   \n",
      "                                                                 \n",
      " dropout_1 (Dropout)         (None, 128)               0         \n",
      "                                                                 \n",
      " dense_1 (Dense)             (None, 64)                8256      \n",
      "                                                                 \n",
      " dense_2 (Dense)             (None, 26)                1690      \n",
      "                                                                 \n",
      "=================================================================\n",
      "Total params: 2798362 (10.67 MB)\n",
      "Trainable params: 2798362 (10.67 MB)\n",
      "Non-trainable params: 0 (0.00 Byte)\n",
      "_________________________________________________________________\n"
     ]
    }
   ],
   "source": [
…
